TP3/ej3/layer0.npy (npy, 100608 bytes, 1 tensors)

array f8 [16, 785]
000000 f2 f2 28 27 90 6b ec 3f 52 23 db a8 d9 f5 e5 bf
       0.8881302609293853 -0.6862610147446537
000010 d0 7e 1a 32 7f e1 cb bf 5c 2b 0d a5 b7 04 e9 3f
       -0.2178191179891571 0.7818258498822206
000020 e0 ca 9b c9 17 3d ad 3f e6 59 fc c2 df 36 ec 3f
       0.05710672699014707 0.8816984947505346
000030 b8 78 37 07 42 69 dc 3f 56 9e 5a b3 8e 2f e8 bf
       0.4439244337535331 -0.7558053496367829
000040 48 c1 29 43 f2 e6 d1 bf 70 bd 60 ce 58 d1 d4 bf
       -0.2797208457841589 -0.32527752069559934
000050 08 3f e7 64 8d b2 d6 bf 90 24 23 e4 42 f8 c8 3f
       -0.3546479688056796 0.19507633342280828
000060 b4 10 c5 8e 9e 05 d8 bf 00 a7 b6 a7 ae ae 9d 3f
       -0.37534297888147283 0.028986672388476187
000070 cc c5 c4 5a a7 75 ec 3f ce c5 17 82 04 21 e4 bf
       0.8893620274376928 -0.6290304699779712
000080 80 b7 16 e2 0f 80 cf bf 48 3b d0 92 51 b7 d2 bf
       -0.2460956434201158 -0.29243888222929515
000090 a4 8a f7 a8 dc fd d0 bf 20 6d 4e 88 41 74 c6 bf
       -0.26549450398139585 -0.17542285113891243
0000a0 d6 3c e3 cf 24 a6 eb bf b8 ff 1e ea d1 cb db 3f
       -0.8640312252336126 0.43431518424403803
0000b0 8a 06 5f 23 34 3d ec bf de 22 1e 44 ad a9 e5 bf
       -0.8824711504787086 -0.676962502520009
0000c0 de 0a 1d 62 09 ec ec 3f c0 53 8c dc 54 eb 95 3f
       0.9038130680349601 0.02140553089255426
0000d0 60 02 04 a0 42 fe c2 bf fc 7a 33 cb 62 42 dd 3f
       -0.14838440716995915 0.45717687457901923
0000e0 a6 f9 04 d3 f4 87 e2 bf 00 c0 4d 2c f2 7d a1 3f
       -0.5790962335084273 0.03416401663605484
0000f0 36 a9 62 05 f3 ed ee 3f b0 42 a4 b0 67 bc e1 bf
       0.9665465455230222 -0.5542486619979936
000100 9c 85 56 90 ee 8b e3 3f b4 b3 2e a7 72 71 d1 3f
       0.6108315295315836 0.2725493080750383
000110 9a 78 db a8 4f 5e e1 bf d8 c8 c9 08 fe c3 d9 3f
       -0.5427625940317455 0.4025874219725103
000120 90 b0 ab 7e 4c f0 e9 bf 64 57 9c f8 06 72 df 3f
       -0.8105833505665192 0.4913346698607397
000130 a2 fc 35 46 7e 1a ee 3f e4 2f 5e 74 42 e5 ed 3f
       0.9407340403849 0.9342357895670799
000140 86 4c f0 33 a2 6f ea 3f d8 7e 59 64 70 4e d1 3f
       0.8261271490504363 0.2704125385261995
000150 64 f8 53 48 f0 60 d9 3f 04 67 e7 53 59 4b e3 bf
       0.39654166281969183 -0.6029478682278016
000160 6c ad e8 7f 38 94 e2 bf a6 50 c9 db e5 a7 ee bf
       -0.5805933473797444 -0.9579953472807758
000170 e0 7f 7c e6 52 46 ef bf 30 20 f0 bb 47 4e c9 bf
       -0.9773344518362101 -0.197701422468755
000180 ac 9d 91 af 02 99 e4 bf ec 6a 04 4f 90 23 dd 3f
       -0.6436780385092127 0.4552956363346954
000190 90 70 1f 7d 97 15 b4 3f d6 da 74 ef 6d 22 e3 bf
       0.07845446400409828 -0.5979528118976656
0001a0 ae 07 d3 cc 88 db ea bf f0 f7 6d 98 bd 30 ea 3f
       -0.8392986298060714 0.8184497811450893
0001b0 24 f4 71 bd db 04 e0 3f 60 c9 66 a8 3b 8b dc bf
       0.5005930614567018 -0.4459981102510451
0001c0 50 1c f5 ac d6 b2 e0 bf a8 e1 cb d0 ec db c0 bf
       -0.5218308809352354 -0.13171158023011498
0001d0 28 08 00 da 3e a8 cc 3f d0 44 32 ac 01 13 b0 3f
       0.22388444561517074 0.06279001668942219
0001e0 60 94 15 ac ef 75 a9 3f 18 27 22 b8 d4 f6 cd bf
       0.049727906948455525 -0.23409518233193505
0001f0 62 b4 a5 d1 26 9c e0 3f 84 48 12 84 a4 0e dd bf
       0.5190614790605077 -0.45401871583556663
000200 1c 2f 99 a6 d4 03 e9 bf a8 10 8f cc d1 80 c6 3f
       -0.7817176107286943 0.17580625999665256
000210 b0 09 4f f0 ba 13 cf bf 18 fd bd ee 96 14 c3 3f
       -0.2427896188147094 0.14906584412890633
000220 f8 37 f7 99 73 af e0 bf 54 73 4c 87 c0 fc d0 bf
       -0.5214174277441534 -0.2654267617488604
000230 8e b1 99 aa 2b c0 e1 bf b8 30 50 af d7 d3 ce 3f
       -0.554708321765746 0.24083992061821902
000240 90 a3 64 b0 49 07 df 3f 7a c4 24 74 26 da e3 3f
       0.4848198149289198 0.6203796642713677
000250 98 23 fa 5c 28 b1 c2 bf ac 35 b7 7c 4f 00 e1 3f
       -0.14603142299554572 0.5312879024365222
000260 0c b6 31 99 00 c8 db bf fc 6d cc 38 52 99 d6 3f
       -0.4340821739232019 0.35310798212751116
000270 d8 a2 fc 65 69 4f ea bf f0 5b 86 83 5b d7 cd bf
       -0.822193812554441 -0.2331346885882506
000280 a0 fe 39 44 89 08 de bf d0 5d 72 03 b0 a6 e6 3f
       -0.4692710081362552 0.7078476016349047
000290 68 b3 27 ae 60 25 e1 3f 78 66 67 2c 1a 57 c6 3f
       0.5358127023188048 0.17453314941558395
0002a0 34 08 99 0e e8 10 e0 3f 00 cf e9 bb 77 2b d2 3f
       0.5020637784111899 0.28390305853757525
0002b0 00 22 b7 49 08 ca d5 bf c0 48 5e a9 48 bb 93 bf
       -0.34045607756391405 -0.019269118630810267
0002c0 06 97 d5 7c 15 27 ee 3f 0c ef 1b d0 d9 39 ea bf
       0.9422709882898921 -0.8195618691092661
0002d0 34 c9 8c 69 bb 49 df bf 80 00 f2 ae 00 c0 c1 bf
       -0.48887524898158863 -0.13867195646526298
0002e0 50 41 52 87 78 60 c7 3f e6 9a f8 84 d2 f1 e5 3f
       0.18263155562864108 0.6857693287937223
0002f0 cc 0c 64 9c 40 f4 e9 bf 04 7b 10 e1 99 b8 df 3f
       -0.8110659651287278 0.49564215640013765
000300 ba f0 00 37 d6 d3 e8 3f 00 b8 a7 69 54 9c a5 3f
       0.7758589815416805 0.042208326241834015
000310 00 c0 d5 40 b0 fe c9 3f 98 1b c5 6a da 20 e5 bf
       0.2030849758698423 -0.660260399375022
000320 74 37 8a 12 87 96 da bf d6 83 f7 aa 71 92 eb bf
       -0.41543747721231417 -0.8616264666744609
000330 5c a4 e1 f1 72 44 e2 3f 44 e1 6e 69 b2 c7 db bf
       0.570855591225278 -0.4340635327930793
000340 74 5f 6d 74 30 de ef 3f 58 96 ff 80 d9 8f e3 3f
       0.9958727144212234 0.6113097686290514
000350 c0 8a f8 f5 58 91 e5 bf 7e 5c 0e 3e 10 9b e6 bf
       -0.6739926151388644 -0.7064286434205227
000360 e8 77 5a 71 b8 4d ca bf 68 48 d4 7f 23 3f eb bf
       -0.20549684080918884 -0.851457357088532
000370 2e 83 d4 95 a1 cc e2 bf c0 61 e2 bd d4 c4 cc bf
       -0.5874793936128293 -0.22475680610365423
000380 80 e1 be 76 ca c5 87 3f b0 ca 5a cd c9 18 bf bf
       0.011607724903897276 -0.12147198928395642
000390 06 52 3a 3f c1 cf ed 3f 40 c7 90 9e da 9a a0 bf
       0.9316107020300144 -0.032431442123551424
0003a0 80 14 63 fb 22 c3 cf 3f d0 ad b8 75 fe 76 d8 bf
       0.24814259791142845 -0.38226281639319115
0003b0 c0 1b 63 6c 6d 8a a2 3f d0 8f 54 1e 61 fd e3 bf
       0.0362123675163768 -0.624680098761468
0003c0 8e 5b 94 3b 44 65 e6 3f 58 89 10 44 e6 6e d0 bf
       0.6998616374647655 -0.25676876685078787
0003d0 c8 59 db 59 0e 7f ea bf a4 d9 42 2b 71 69 e9 bf
       -0.8280097727791196 -0.7941213459915173
0003e0 f2 ef 3c 9b 23 2c e5 3f 4d 8e b5 a1 49 f2 ca bf
       0.6616380722039124 -0.21051903148610265
0003f0 ee 7f ad d1 01 4c e1 3f 5d 0c 36 65 23 2d d7 bf
       0.540528211142371 -0.36213002094172514
000400 da bb 06 63 a7 0d d0 3f 10 b6 a9 64 e8 e7 ef 3f
       0.25083336515939225 0.9970590559075294
000410 c4 32 ca bd ba 05 84 bf 22 48 be 06 3f 52 da bf
       -0.009776553074766332 -0.4112699094631599
000420 76 6c 4c ee c7 1e e5 3f fa 4d b8 23 f3 5b e1 3f
       0.6600074438350834 0.542474336400516
000430 aa e9 5b 59 92 1e e0 3f 70 2d 9f 7e c1 ec e0 bf
       0.5037318940442692 -0.5289008591729907
000440 80 49 fd 0b 83 f9 9a 3f 44 2b f2 42 cf 76 df bf
       0.02634243736913211 -0.49162656343166966
000450 96 76 08 11 ca 43 e7 bf 64 b6 2b 90 46 4f d4 3f
       -0.7270250637700026 0.31733860091376287
000460 00 10 43 3a 08 d4 d1 3f b6 b3 93 98 1d 34 ea 3f
       0.2785664147343141 0.818861768724324
000470 ae 1a 3e db 55 7b e1 bf 68 d6 90 04 f0 a6 c6 3f
       -0.5463055879671026 0.17696953032434526
000480 54 93 ee 5f b9 f8 ee 3f 08 7d 10 56 a0 65 c2 bf
       0.967861831061422 -0.14372638895381606
000490 b8 1a b8 cc 08 df d8 bf ae 26 c8 6f d6 8b ed 3f
       -0.38861293785195583 0.9233200247992579
0004a0 ac 8b 69 25 bf e8 d8 3f e8 75 a9 07 92 d2 c0 3f
       0.3892057290415163 0.1314260995304004
0004b0 26 49 ed 83 a6 2e e8 3f db fc 65 60 a6 31 ed bf
       0.7556946350762572 -0.9123107798367543
0004c0 25 46 a7 d5 b8 92 e5 bf 13 d7 19 22 02 f4 ed 3f
       -0.6741604016226047 0.9360361734422632
0004d0 e5 c0 37 5f 9f 9a eb bf f5 e0 fc 03 19 a3 df 3f
       -0.8626248225901035 0.49432969464716275
0004e0 ec 3d 61 a7 fd 1f e9 bf a6 96 59 d5 ed 2b 67 bf
       -0.7851551312577931 -0.0028285641845283314
0004f0 d5 43 b4 81 6c cc d5 3f a1 da cf e6 ee 7f 91 3f
       0.34060204187795523 0.017089588964121053
000500 49 7b 11 d1 9d 26 ec 3f e9 f3 94 2c e7 43 b6 bf
       0.8797139247288693 -0.0869736179201507
000510 f0 70 79 eb 3d c2 db bf c5 eb 66 50 14 11 d7 bf
       -0.4337305831484306 -0.3604174409080623
000520 f4 d3 9f cc 22 8c ec bf b6 cf bd 3f 58 79 ea bf
       -0.8921064373558907 -0.8273125882101258
000530 9c 06 02 c6 38 6b e2 bf 20 ec 3a 01 b3 7e d5 bf
       -0.5755885951368387 -0.33585810775884006
000540 78 e2 b3 e4 29 60 e4 3f 50 f0 1f 23 dc 96 d9 3f
       0.6367387263154134 0.39983275823738484
000550 58 28 7b b2 7d f3 ed 3f 58 89 8c 4d c3 c5 ef 3f
       0.9359730230292014 0.9928909792545637
000560 6f d7 1c 56 d3 27 de bf 5d 32 89 75 0d 60 d7 3f
       -0.47118075761260675 0.36523758390538835
000570 28 0c 49 c6 d4 a9 e6 bf da f5 83 df b1 f6 e4 bf
       -0.708231341625269 -0.6551141133820082
000580 2b 81 c4 3e df 89 e5 bf e1 22 08 2c 76 46 a8 3f
       -0.6730800844125374 0.047412579417203345
000590 ee 75 db fa 0f 1b d2 bf 12 09 46 bf 30 a4 ee bf
       -0.2829017591264734 -0.9575427757083921
0005a0 f1 91 d7 1a 88 67 e7 3f 7c 68 44 0d b7 5a d1 3f
       0.7313881420382683 0.2711618070185364
0005b0 c4 62 c6 d6 d1 0d d8 3f 94 5a 31 97 e2 96 e0 bf
       0.37584348653903654 -0.5184185936912677
0005c0 98 18 17 bf 41 f2 e2 3f b5 69 21 00 74 bc d0 3f
       0.5920723659735527 0.26150226605173127
0005d0 2d d6 f3 4b 9e 7b 97 3f 90 bb eb f3 d5 6f e5 3f
       0.0229325040681571 0.6699018253401494
0005e0 29 23 61 06 d3 02 ec 3f 6f bd db 3f 6b 71 e7 bf
       0.875344765148019 -0.7325950858338909
0005f0 71 5e 74 fd 84 2f d8 bf e3 b8 da a1 d5 6b ef bf
       -0.3779003596441504 -0.9819133912294798
000600 84 f9 94 bf 99 7d db bf 7a 4d 5e 97 c8 38 e0 3f
       -0.429541050998431 0.5069315868772002
000610 00 5b df 17 6a f6 d8 3f e0 64 4a 32 ab bd b3 bf
       0.39003994303986644 -0.07711286523626226
000620 60 17 8d f8 6d 63 c6 3f 48 88 f6 58 30 0f dd 3f
       0.17490934978757888 0.4540520542888129
000630 88 de 93 d5 a1 49 c8 3f 90 54 f4 b6 8a 3c d4 3f
       0.1897470753535695 0.31619518152849313
000640 45 fe de 77 e7 46 cd bf 7e af 31 2e 24 8e 8d 3f
       -0.22872632363395176 0.014431269321185655
000650 10 f4 e4 7d 63 c2 ca bf 8d 64 fe e3 f5 6d d2 bf
       -0.2090572705000402 -0.28796145691882985
000660 ff 1a 1b 46 04 73 e5 bf 3c 72 8d 69 33 8a e7 bf
       -0.6702901238685114 -0.7356202184269658
000670 d7 b7 2a 6e f1 71 68 3f 4c b9 f2 b7 90 7d d7 3f
       0.0029840197979273775 0.3670388981216959
000680 a7 71 0e 92 b1 68 da bf b0 fa e6 14 82 c8 e1 3f
       -0.41263999236414367 0.5557260902640646
000690 31 b4 f1 69 28 b2 d5 3f 47 92 53 71 96 65 db bf
       0.33899889322384796 -0.42807541911159713
0006a0 2f 61 d5 cb 5c aa dd 3f 5f ec 5e a9 5b 54 ec 3f
       0.46352310090653054 0.8852976139090848
0006b0 5f 83 6c f0 52 85 ec 3f 40 0d 65 3a c8 9b de bf
       0.8912749000338457 -0.4782581873189038
0006c0 cc 52 b4 c0 f3 00 e8 bf f3 36 2a 61 6d 71 b6 bf
       -0.7501162303693376 -0.08766826269330945
0006d0 37 bc b6 cc 87 80 ed 3f c0 82 7d 01 b5 04 ee bf
       0.9219397543255415 -0.9380745915514908
0006e0 c4 ee c6 fc d3 e0 d0 bf c0 8b 77 d2 76 53 b7 3f
       -0.2637224167371921 0.09111731184343252
0006f0 6a 1d 27 a7 68 1c ea 3f b0 2e a7 b8 37 92 b2 3f
       0.8159678711607914 0.07254360445147756
000700 80 68 16 81 13 49 e7 3f 94 38 ad 72 e5 8f ef bf
       0.7276704331627712 -0.9863154639986242
000710 0a 41 ae d5 1e ea eb 3f 1a e6 66 c2 dc 30 e2 bf
       0.872329156251028 -0.5684646412766512
000720 cf ee 91 2b d0 23 ee bf a9 34 96 e8 00 d4 ed 3f
       -0.9418717242219489 0.932129339476565
000730 a8 7f 14 cc e8 9e e6 3f a1 1a 63 f3 5a be eb bf
       0.7068981157244609 -0.8669867280630862
000740 5f 11 97 c1 88 f0 d1 3f 8a ca 01 68 b3 43 d7 bf
       0.28030604272159637 -0.36350712925847317
000750 0a 47 51 c0 30 e5 ea 3f 95 0a 83 7c e8 00 ea bf
       0.840477347965334 -0.8126108581421528
000760 0e 58 6f ef df d9 e3 3f 08 c3 60 41 ff e6 be bf
       0.6203460384811039 -0.12071223589078894
000770 04 73 17 77 2c 00 e5 3f c8 3b 80 40 01 b0 e5 3f
       0.6562712026603497 0.6777349719794694
000780 b9 fc d7 df 45 ee e2 3f 20 e8 f6 af 6a 24 d8 3f
       0.591586053080298 0.3772227018740768
000790 7e cb db 63 39 37 a0 3f c3 a1 23 00 89 56 ef 3f
       0.031671327056662854 0.9793133738249299
0007a0 4d a2 1f 73 ff 8b dc 3f bc ae a0 ab fa a3 e3 bf
       0.44604479067360076 -0.6137669899084908
0007b0 65 4d f2 33 39 cd d3 bf 00 0c 9d 18 27 23 9e bf
       -0.3094008452692008 -0.029430971982275622
0007c0 1c 34 14 f4 06 d9 ea 3f 68 e7 21 b4 19 da c7 3f
       0.8389925734678658 0.18634339614419138
0007d0 9c ee 9e ad 60 85 e3 3f c4 ec 5a 46 3d 5a db 3f
       0.6100314513236813 0.42738277311918815
0007e0 00 20 50 ac d4 7e 3a bf fa 2f e6 3a fd 1a ef bf
       -0.00040428821768090373 -0.9720445776342779
0007f0 c0 74 a1 79 31 aa 94 bf 80 1d 16 8e af 4e a4 bf
       -0.020180485771892576 -0.03966282472088789
