TP3/ej3/layer2.npy (npy, 1408 bytes, 1 tensors)

array f8 [10, 16]
00000000: 612c e44b dc69 ddbf 5932 2504 dbad c3bf
00000010: efae 5728 6d61 f13f 8bf2 bc6d bba4 ddbf
00000020: 4bea 3a6c 7692 f5bf 6820 242a af1e e0bf
00000030: 06c8 121c 5259 e83f 5ef6 5d0f 9e64 e73f
00000040: e421 96cb 4f52 f03f c1e4 1ede f731 d9bf
00000050: 540f 24f9 42c1 c33f 7232 822d a829 dfbf
00000060: c98e 79cd cb85 a93f daaa c718 aa66 e8bf
00000070: 8281 7543 e8d3 e1bf 8cbc e82e 35f5 dd3f
00000080: bcef 6552 7896 c03f 9455 f7fb f02a ed3f
00000090: 47e0 dba2 5805 b93f c96f 45f6 0f60 e3bf
000000a0: a1e8 275e 7634 b33f b460 6377 7ea8 f0bf
000000b0: fe2e a29d fee8 babf 75f3 968f 6c4d df3f
000000c0: 5df6 c317 6976 84bf bdba 083e f1b8 e1bf
000000d0: 1a33 27be 1107 ef3f a069 0327 38fd c33f
000000e0: 782a 63b2 c918 cbbf 4572 c650 8a12 b1bf
000000f0: ddcf ebd6 2c9c edbf 1542 2ebd 1d90 c4bf
00000100: 67a1 fe7f 4a26 ebbf 8b37 e9d2 6a38 d03f
00000110: 41d4 3ea8 5e71 d6bf 1ada 30df a7be f53f
00000120: c2c2 7180 bc6b cc3f 0115 d7a5 4b87 dbbf
00000130: 1e2e 6495 76e2 debf 1842 c19d 0cc1 e7bf
00000140: 94a0 598d 5f2d e03f 2a96 6265 98c3 bfbf
00000150: 7f54 3966 9393 a4bf f28b de0e f741 bcbf
00000160: d829 e309 62eb ec3f fa0f e957 126a c0bf
00000170: d26c 5522 afb4 f1bf c2db cc16 4ead e4bf
00000180: 7f59 237b d44a f2bf 085b 5e4c fb5e a2bf
00000190: 2117 a3e5 7d16 d23f 37ac 8e58 bca6 d3bf
000001a0: e3b8 4bc1 3dbd c6bf 853a 15b0 6ba4 c53f
000001b0: 31d9 cebe aefd e9bf 0ca2 5f79 041d dc3f
000001c0: 2a63 67a6 065f efbf 7256 80ee d303 98bf
000001d0: af79 62de 2b29 dcbf f265 aba8 68f7 a83f
000001e0: f15c 67b4 a99b d9bf af44 03e9 4ded d7bf
000001f0: 1c51 1a36 c45f dcbf 71af 2796 27e6 b7bf
00000200: 42de 7445 3331 dfbf 92cf 2940 f76d dbbf
00000210: 0539 6e6a 6b0c a43f a3b2 62cd 64b7 c63f
00000220: ab06 e3ed 9c4b b7bf 2c56 83c4 16b7 ebbf
00000230: 62ed db0f 362d e33f ee7b 0d11 fbd8 e73f
00000240: 9cb0 c8fa 7d23 e73f 4e95 80f8 37d0 ebbf
00000250: d720 ba93 f5a2 e8bf 8bf2 fa3e 77fb db3f
00000260: 214e 13f5 f800 dc3f aa83 3115 55ed d2bf
00000270: 0637 926b 8c00 e03f 50d3 fe65 31c6 dbbf
00000280: 3ea9 6b0a 1eb0 f1bf b801 71ed 6593 e8bf
00000290: 9b2a ef43 b27d f0bf 90cd 898b 353d f0bf
000002a0: 5905 bb6b 0ef3 e1bf 7c8d baac d09c f03f
000002b0: 2e2a 764b 8ec8 ac3f a93f 3fb1 59d0 adbf
000002c0: a75c eba8 07c1 dd3f 3243 025d 1b58 e0bf
000002d0: 3eb3 b58f 2007 d7bf a088 c877 8c60 e63f
000002e0: 5b43 f11a 08df e03f df89 227b cc82 d73f
000002f0: 7529 159d 6e07 d73f 714b aa5a c51e d63f
00000300: 1118 a325 9505 f1bf 3aaa e606 c8a2 de3f
00000310: 7e17 5e14 4228 c93f 2ac1 6f53 dcc7 bb3f
00000320: be7b b387 186e f5bf bea1 490f d758 d43f
00000330: 9dd9 5075 e42d d1bf 2ce0 a5aa 75a3 c53f
00000340: 8766 cff2 2a6d df3f 42e7 6054 0385 d53f
00000350: 6c3b 7135 75aa d03f 3da4 6119 c1e0 c13f
00000360: 237b d43c e4fe cd3f c0fa 4638 0803 f1bf
00000370: ea26 8b95 dffa e6bf fdf1 2a6e 2265 f0bf
00000380: 8838 d494 823c f3bf 6023 a44c 40ba dc3f
00000390: 8bc0 2ee6 3793 e73f 0916 e51d eb63 ccbf
000003a0: 932d 97da f07a edbf 6f68 60ca 0a49 de3f
000003b0: 8741 4bdd 80b5 e63f a0a3 fcaf 5952 b43f
000003c0: 5197 f6c9 7466 dbbf befa 6cec 24d3 efbf
000003d0: 6d2c 95d5 2b2b e23f d103 1895 3d17 c1bf
000003e0: a06b 8601 0f15 edbf 439b 32e9 1439 ecbf
000003f0: 6af6 5f88 6a06 e53f 8f26 548e 67d8 cabf
00000400: 75ad 5718 36a1 edbf 5148 ea2f a628 f3bf
00000410: 13ca 15c2 762f c83f 3ab9 fb4c f4af e33f
00000420: 51b6 0762 b567 e7bf b11c 414a b3f7 d33f
00000430: 218d 7b88 a5ad e3bf 2af4 df25 5e07 db3f
00000440: 2bdc 1eb1 aaac cbbf 19ef cef0 4341 cfbf
00000450: b5b3 43be a50c e63f 66d8 bb7f e737 e7bf
00000460: ce16 47fe 7ab6 e23f 1d95 b488 1b83 cabf
00000470: 28c8 929c 5bb8 e9bf 754e 9795 c633 f3bf
00000480: 61eb d538 9402 c9bf 1933 b4dc 3900 b9bf
00000490: 0be5 08a5 fcc8 e63f f373 6dc8 4566 e43f
000004a0: 8699 bc0c 1105 e53f 78ec 9ec1 74df e3bf
000004b0: 3d22 f082 ebdc d13f 9f78 5bd5 ebfb c4bf
000004c0: e416 e398 2671 e6bf 7c77 05e8 d87c eabf
000004d0: 0f69 727a 5d12 e1bf c58b 10c5 6a49 ddbf
000004e0: 1abb 856c 5f49 c23f 9d62 ab90 1cef f0bf
000004f0: 9ac6 0795 002c ea3f 931e 8afb 16b7 ebbf
-0.45958621417293527 -0.15374314978034212 1.0862857414130607 -0.4631794521008394 -1.3482574680080173 -0.5037456343716373 0.7609034107501891 0.7310324001443396
1.0200956299396404 -0.3936748189112898 0.15433537640648842 -0.48691753811070904 0.049848908264519994 -0.7625322803481496 -0.557117587810396 0.4680912931534713
0.129591980203143 0.911491863366495 0.09773782707259314 -0.605476361273298 0.07501926230171076 -1.0411362327195492 -0.1051177153441891 0.4891005899660777
-0.009991475141300993 -0.5538259708026413 0.9696129526069825 0.15616514115283753 -0.21169396601029056 -0.06668915245104141 -0.9253143499067807 -0.16064807641352333
-0.8484241962333215 0.2534434375455638 -0.3506695406934491 1.359046813811466 0.22203785201738496 -0.43013278193787136 -0.48257221783635085 -0.7423155861998252
0.5055387268776195 -0.12407829737875234 -0.04018841383791826 -0.11038154709835604 0.9037332718956419 -0.12823704998493196 -1.1066123334083398 -0.6461553998295744
-1.1432690439301891 -0.035880902359329225 0.2826227896260765 -0.30705174110579797 -0.17765018404265395 0.16908022020148308 -0.8122171141356259 0.43927108624350875
-0.980349850661786 -0.023452102119412684 -0.4400129005170141 0.048762579526464025 -0.4001259099727142 -0.3738589072718907 -0.443345120272413 -0.09335563102621137
-0.48737794669020584 -0.42858678117703974 0.03915725397301809 0.17747173336592423 -0.090997512891614 -0.8660997236390293 0.5992689428089018 0.7452369053897863
0.7230825327037738 -0.8691673139152643 -0.7698924908918582 0.43722325468460416 0.43755935605187984 -0.2957356173483797 0.5000669575690331 -0.43397173843850556
-1.1054973990490704 -0.7679929387596109 -1.0306875852281 -1.0149436426844183 -0.5609199623215019 1.0382849452224425 0.0562176196209133 -0.058230212103466635
0.46490661140473794 -0.5107552353457321 -0.35981000932843077 0.6992857303159958 0.5272255445689596 0.36735832238096394 0.3598286184320821 0.3456281075861432
-1.0638629408072158 0.47868538545540995 0.19654108042248802 0.10851838147187168 -1.3393788624596108 0.3179223679822164 -0.26842605072615716 0.16905089218539737
0.49103807174615394 0.3362434696206159 0.2604039213082874 0.13967145671202444 0.2343411728879455 -1.0632402609186755 -0.7181241913578706 -1.0246910384586265
-1.2022729695923164 0.4488678692292094 0.736720990729752 -0.2217992683383019 -0.9212574261995762 0.47320813906993114 0.7096561739108872 0.07938156649164663
-0.4281284305856064 -0.9945244424523805 0.5677699252640999 -0.13352174549075227 -0.9088206319605554 -0.8819679789201945 0.6570332206317293 -0.2097291417087956
-0.9259291148604648 -1.1974241134344263 0.18894848324596633 0.6152287963466627 -0.7314097323084728 0.31199342967415605 -0.6149470964122977 0.42232469271385986
-0.21620687149490556 -0.24417924173564456 0.6890438762762786 -0.7255742544937334 0.5847754446374098 -0.20712608504360555 -0.8037546213220184 -1.2001405566597019
-0.19539120459725282 -0.09765969885138438 0.7120345328650343 0.6374844469643207 0.6568684815181747 -0.6210273534446875 0.27910888468662504 -0.16393802564465873
-0.7013123498988674 -0.8277401477496222 -0.5334918395558662 -0.45760602230637587 0.14286415862030638 -1.0583768511916454 0.8178713713407035 -0.866099826133864
