TP3/ej3/layer1.npy (npy, 2304 bytes, 1 tensors)

array f8 [16, 17]
0	0x3fed9f9205050c79	0.9257288072625577
1	0x3fc45f8e2349cbe1	0.15916611407337114
2	0x3fb1aab3b511d11a	0.06901095553059058
3	0x3fd306a8453d8145	0.29728132974380045
4	0xbfed84d539b13a8e	-0.9224649550249795
5	0x3feb5e8023c2fa51	0.8552857111424804
6	0x3feca0aa5eb7f473	0.8946124887439865
7	0x3fe4348c928ec9ee	0.6314146864372654
8	0x3fc5cade307fedd9	0.17025353782797373
9	0xbfc9625898ffcae1	-0.19831378431952998
10	0x3fe3f997c402289e	0.6242178753175442
11	0x3fe66daeb77ac2be	0.7008889754852914
12	0x3fe819d3fed03c72	0.7531528450798659
13	0x3fcc1aafd3891c16	0.21956441716085412
14	0xbfe25c9791919eec	-0.573802742303966
15	0xbfeb99cb89ad187e	-0.8625238121974375
16	0x3faad6f3a3aa0405	0.05242120144703936
17	0xbfdf55509ca5f41e	-0.4895822076576354
18	0x3ff1dc807e4e0881	1.1163334783346104
19	0x3fe68a8f5163b615	0.704414042438375
20	0xbfc92ab1da5503d4	-0.19661543999430242
21	0xbf86ff454df4bfb7	-0.011229077760248047
22	0x3fdc638b5d7c15f6	0.443575707715666
23	0x3fdfe0da102a71e7	0.4980988653058191
24	0xbfb253c37a9e7554	-0.07159063094737422
25	0xbfc7f6367f6b0b98	-0.18720132085408347
26	0x3fd68d149a02eba5	0.3523608688371332
27	0xbfed2bc82068c346	-0.911594451236035
28	0xbfd9ae6f70bb3ce3	-0.4012716866390759
29	0xbfd07e057b03fb05	-0.2576917363475533
30	0x3fd23eb9d3fd513a	0.28507848455525997
31	0xbfd80a504b8755d8	-0.3756294953903683
32	0x3fa5b6b89fed2515	0.042409677049884
33	0xbfd31e610d4e736a	-0.2987291936822688
34	0xbff14bc5489bc3d5	-1.0809986912029121
35	0x3fd7640b6c45d972	0.3654812390663188
36	0x3fedb49a86c1b728	0.9282963401762787
37	0x3fd0721d8e1d43b7	0.2569650543055632
38	0xbfc8659da1133757	-0.19060106625550574
39	0xbfe1659e5f2082d5	-0.5436546190213344
40	0xbfe157214c732ed2	-0.5418859952128179
41	0xbfdc9281a18b35a7	-0.4464420392585801
42	0xbfe154e68cc726d5	-0.5416138410157268
43	0x3fdda8de42713c63	0.4634318970538002
44	0x3fc9346efda81ab1	0.19691264520243615
45	0xbff0adecd7d55323	-1.0424621993053698
46	0xbfef328401e091f6	-0.9749164616264909
47	0x3fe8e088493ea15d	0.7774087362823071
48	0x3feaeb05412eb5fa	0.8411890290350919
49	0x3fa6a3fa16be3c17	0.04421979453683649
50	0x3fc95982ecbe05cb	0.19804417190247955
51	0x3fe7c8c711dac3cb	0.7432589863511735
52	0x3fe56bde9bdf69f6	0.6694176716221694
53	0xbfeedd57d5225604	-0.9645194208885077
54	0xbff1ed6b5b606bf0	-1.120463711681392
55	0x3fd89303367172a6	0.3839729339286272
56	0x3fdf151d144e7929	0.4856636713319796
57	0xbf810468760f69e6	-0.008309188940917655
58	0x3fd6cea4ab5a7fe8	0.35636250241986867
59	0x3fe05d0b4caa8df6	0.5113579270732191
60	0xbfc0bd12f4cf2b83	-0.130770082031031
61	0xbff038300f89a12c	-1.013717709249316
62	0xbfd3e1b545523f91	-0.3106511284795426
63	0xbfeba9fb3831955a	-0.8644996736081041
64	0xbfdc042a6c38570b	-0.4377542549931241
65	0xbfcf707b46a26d96	-0.2456201643843598
66	0xbff17be30b3fbeec	-1.0927458228506408
67	0x3fe1b5fb6424a1d8	0.5534645992202583
68	0xbfd55793b91f90b0	-0.3334702785343877
69	0x3fcd13e96fabe662	0.22717016174992738
70	0xbfdc1b429c8ef172	-0.4391638306513165
71	0x3fdae8272670d074	0.4204194903752587
72	0x3fd483c13cf48cf1	0.3205416770235408
73	0xbfdfd64ee0ba31c1	-0.49745532938029774
74	0x3ff339ef09c3c2cb	1.20164398016293
75	0x3fd760e5cba33461	0.3652891625068318
76	0x3ff2227bc8c8489e	1.1334188311634885
77	0xbfd32166443878de	-0.2989135423866979
78	0xbfd702fb9b14ff88	-0.35955705780724445
79	0xbfe4cb2070d0ce4a	-0.6497957423620815
80	0x3fe6e66b6a70014d	0.7156273917062578
81	0x3fcb51582daa5c01	0.21341993551024532
82	0x3fc058b5e80ebfa8	0.127707231816655
83	0xbfe23bfea9de7e80	-0.5698235814815718
84	0xbfd043a4236a0626	-0.2541284890977259
85	0x3fe09b8640be118a	0.5189849152089192
86	0xbfea553525350af9	-0.8229013182356929
87	0xbfe677898fd8dce2	-0.7020919618143149
88	0x3fcc6867f13e4b3c	0.2219362190195059
89	0xbfe209a0ebf4e01c	-0.5636753662611258
90	0xbfbad8c57090904f	-0.10487016676103277
91	0x3fcaac73efb6efcb	0.2083878441316059
92	0xbfde888f5b3ae9f0	-0.47708496007149304
93	0xbfe77edaffad7a65	-0.7342352861122207
94	0x3ff1a702716d0ad1	1.1032738142682101
95	0xbf8c6b224458f419	-0.013876216612624547
96	0xbfdc00c7539e1a4b	-0.4375475231721892
97	0x3fdab32d1910f39d	0.41718604514954355
98	0xbf4ff684a7644140	-0.000975432178878001
99	0x3fbf80b3c15d055f	0.12305758925233111
100	0xbfc721bb7a783742	-0.1807169292446194
101	0xbfaf2d6e29c927f4	-0.06089348087387228
102	0xbfe10285ec04de50	-0.5315579995867186
103	0x3fb83046108d1de2	0.0944865980537695
104	0xbfd708344e11f344	-0.35987575172457675
105	0xbfeddd7cb905297a	-0.9332870114970284
106	0xbfdbfe4c1870104f	-0.4373960722589389
107	0x3fe121867edc2b53	0.53534245278693
108	0xbfeb0afb9d6aadc2	-0.8450906824631874
109	0xbfe1c92494486698	-0.5558035751484622
110	0x3fe3c4c39cf185fe	0.617769056825807
111	0x3fc3fcb3faeeb32d	0.15614938499984402
112	0xbfed23de690226fa	-0.9106285143800215
113	0xbfd10546c4b341c8	-0.26594704827314475
114	0xbfd76555223c17c2	-0.3655598482440575
115	0xbfe7ad6d1ebd5299	-0.7399201965696022
116	0xbfe204cd64276a08	-0.5630862194187225
117	0x3fd1b5fe14d9fd01	0.2767329410198301
118	0xbfd3329c53d2dbd8	-0.29996402917771325
119	0xbfc203ff1d7cabbe	-0.14074696483416277
120	0xbfca72690a546011	-0.2066165256917434
121	0x3fb02528caa88480	0.06306700656615938
122	0xbfe4bddb3966d362	-0.6481758233190755
123	0x3fe039608ed2e823	0.5070040502098475
124	0xbfdee168208fc379	-0.48250773601380775
125	0xbfd2aa222df92ecd	-0.2916341256102271
126	0xbfeb2c37265f77bf	-0.8491473912688362
127	0x3fe242205ca81789	0.570572072000446
128	0x3fdbfbe1993cc255	0.4372486111124421
129	0xbfed3c3729a4500c	-0.9136005223576844
130	0x3fd01a35ee664f01	0.2515997722741617
131	0x3fea7473c44bfcb4	0.8267153581545217
132	0x3fd7073c156aab1d	0.3598165711543276
133	0xbfdf8ff49fc58a2e	-0.4931613502759856
134	0xbfe359899a6d86f4	-0.6046798721474418
135	0xbfcd52b16dc86f08	-0.2290860925721676
136	0x3fc80c5bc7e436c3	0.18787715206456398
137	0xbf81a9078477e68b	-0.008623179178346227
138	0xbfea4cdbb60fabee	-0.8218821102030895
139	0x3fdd756e4ca9aae8	0.460292410722714
140	0x3f7c41c2f4727c62	0.006898652594059392
141	0x3fda0c4f4a0c4ff6	0.4070013259054116
142	0xbff0024a6a46620c	-1.000559249054393
143	0xbfcf16b1689d99d2	-0.24288003547844866
144	0xbfdc54b0f7a616fc	-0.4426691454358289
145	0x3fede906138f5186	0.934695280268486
146	0xbfb458c788732730	-0.07947966653150895
147	0x3fec53af58e13714	0.8852154479916146
148	0xbfef164ff64e4490	-0.9714736757906781
149	0xbfbda931bc4dfebe	-0.11586294982225362
150	0xbfdb1a5fb9aacc21	-0.4234847367435482
151	0x3fddc6d1f790413e	0.46526002098200425
152	0xbfdca5a826107291	-0.44761089055263265
153	0xbfea39fba8f54d9b	-0.8195780086484094
154	0x3fed4639911c8aa7	0.9148223718842318
155	0x3fe857a1b0446288	0.7606972162930825
156	0x3fe7185467751120	0.7217199345255132
157	0xbfe57cf63046bd91	-0.67150411061259
158	0xbfebe6b154abc233	-0.8719107297639027
159	0x3fa938c67321b5d9	0.04926128535667446
160	0x3fe6ee6c2af1eb4b	0.7166043127793754
161	0x3fe9d33519811fc3	0.8070321558125148
162	0xbfac569ead6040cb	-0.05534835688024627
163	0x3fecfe91549be9c8	0.9060751583595499
164	0x3fddab3605f06a2f	0.46357489185325823
165	0xbf68835c012f86dd	-0.0029923245397050894
166	0x3fc4125e30654297	0.15681054461540064
167	0x3fe35676e1fe4b4a	0.6043047346050596
168	0xbfc1dc1b5f924b5a	-0.13952963034224802
169	0x3fe1f2d2bf4a5929	0.5608915077344011
170	0xbfc94c5b886a9771	-0.19764274750667313
171	0x3fe05ed3c832a705	0.5115755949129556
172	0xbfb105ac081d52f7	-0.06649279783352911
173	0xbfefd3b4a05e4f50	-0.9945929653353947
174	0xbfe05ed17b4b89b6	-0.5115744979960286
175	0x3fc2121de78ff9da	0.14117788130529513
176	0xbfe880f54e2e75f3	-0.7657419707281278
177	0x3fe05dc900834ab5	0.5114483842865726
178	0x3fca316aa617bb53	0.20463307485575885
179	0xbfd95bb2e341a275	-0.3962218493748318
180	0x3fe3a3bc73a92c29	0.6137373217583263
181	0x3ff2219355970f3f	1.133197149597393
182	0x3fa633f301ee5202	0.043365091310224826
183	0x3fc70d46a6911fd5	0.1800926507296469
184	0xbff08278dae96a09	-1.0318535376778775
185	0x3fe3bfc80784c22a	0.6171608111236015
186	0xbfeaf138b9c2dcd1	-0.8419459942005237
187	0xbfe3714d918f0dc6	-0.6075809328980817
188	0xbfc1ecc5b2ba5d3c	-0.14003821589424514
189	0xbfba1e6d537e7948	-0.10202678001812615
190	0xbfec1982edfc736d	-0.8781141899267887
191	0xbfec91cb95f1e698	-0.8927972725498021
192	0xbfdb5cbed31302d0	-0.4275357304832541
193	0x3fe43f0cff93e810	0.6326966277840729
194	0xbfeab08a8ac2bc1b	-0.8340504369897447
195	0xbfe0aa7c3edabf93	-0.5208111980082201
196	0xbfb2986ef42a52e9	-0.07263844929759568
197	0xbfec6d606afa5fd9	-0.8883516396917869
198	0x3fe3739cb5a4be49	0.607862810871617
199	0xbfd37f99af1172f5	-0.3046631059312824
200	0xbfc8b25cc794ab5d	-0.1929431890979129
201	0xbfd3c27bc2d1cd38	-0.30874532723756287
202	0xbfdf5900d066d6b3	-0.4898073229954704
203	0xbfd2aad62901a2ae	-0.2916770363286031
204	0xbfd3ee24d7bb7167	-0.3114101511726148
205	0x3fc701eced5d53a5	0.17974626150194442
206	0xbfecd3c457b7e774	-0.9008504594087143
207	0xbfdb81cbd71b8459	-0.42979713446226736
208	0xbfeab3850b47d283	-0.8344140262912138
209	0xbfd7aa859948d705	-0.3697828289908645
210	0xbfd5fc22e54485d6	-0.3435141791288435
211	0x3fc312360a6c756f	0.1489932585617839
212	0x3fdf7e0225c6e1a0	0.4920659417071196
213	0xbf844dfc14f996dc	-0.009914369001488614
214	0x3fc4ff7a8eb120fd	0.1640465924012985
215	0xbfc5cc86663d869c	-0.17030410759166592
216	0xbfe903a210ebb68a	-0.7816934900744894
217	0x3fb7dc5184eec634	0.09320554252078567
218	0xbf30fa8b6b131736	-0.0002590742470370723
219	0xbfe85865fb379ae1	-0.7607908159814906
220	0xbfb48b2cfe19da86	-0.08024865344655482
221	0xbfd98912cfb79786	-0.3989913013923502
222	0x3feec98882dbec80	0.9621012264100415
223	0xbfea521540949585	-0.8225198994957031
224	0xbfd66ee8a68ed67b	-0.3505193354170399
225	0xbfe024db99234d2b	-0.5044992438292061
226	0xbfef05751fa20b71	-0.9694162004310397
227	0x3ff07e01d2d54707	1.0307634578388745
228	0xbfd8aacf86d82b0f	-0.38542545479201434
229	0x3ff18f3a288e4ce3	1.097467573567706
230	0x3fd2c3ec47948be5	0.29320818891772965
231	0x3fc3673cf308d2d6	0.15158807627599086
232	0x3f9dda972e3d5e06	0.029154169270752227
233	0xbfeabfcbcfc49b66	-0.8359126146286655
234	0x3f95f5fc033d9758	0.021446168611326172
235	0x3fc270ce9a66f656	0.14406759776277295
236	0xbfc14c04f2046bf0	-0.13513242547273263
237	0x3fc32fe95b5ac407	0.14989964447661938
238	0xbfac90a55d2e8303	-0.05579106104347
239	0xbfef748f2f8fbf3b	-0.9829784325538421
240	0x3fd6f06f3425ad9f	0.3584249505281267
241	0x3fe482c86a854413	0.6409647064666636
242	0x3fee84b60be4146c	0.9537000877613884
243	0xbfe812e0e039ad70	-0.7523044948006099
244	0x3fc31af47425053a	0.14926009818194946
245	0x3fa887d8f5853b71	0.04791143414569533
246	0xbfceec9a03fdd02e	-0.2415955085267582
247	0x3fbc4257127c6a95	0.11038726998632804
248	0xbfe59db53e9f5d78	-0.6755014632316678
249	0xbfe8f1c656f3753f	-0.7795135210286971
250	0x3ff3688d13440515	1.213025164848948
251	0xbfd6a1fc12bfa59a	-0.35363675909919723
252	0x3fe2b987dfe2491e	0.5851477978451702
253	0x3fe384865c3a8f49	0.6099273492186309
254	0xbfdec62feee8d2d3	-0.4808463891124976
255	0xbfe6c6a5c6de9de7	-0.7117489704295935
